models/pretrained_sim_lc_finetuned_lc/pleasant-sweep-1/epoch=19535-step=19536.ckpt (torch, 599678 bytes, 140 tensors)

lightcurve_encoder.query f4 [32]
0.8701178 0.76364297 0.49445903 0.8147567 0.68712664 0.4608776 0.5565254 0.36698002
0.33995616 0.65935576 0.38600516 0.37131506 0.91177803 0.8573432 0.6324514 0.7580997
0.37837487 0.671426 0.3064462 0.6435169 0.4184503 0.41359776 0.979659 0.69037694
0.41832608 0.17474413 0.98883474 0.43665367 0.5914507 0.12874812 0.32001567 0.6573625
00000000: 0ac0 5e3f 1b7e 433f bc29 fd3e e593 503f
00000010: 88e7 2f3f 26f8 eb3e 7378 0e3f cee4 bb3e
00000020: bc0e ae3e 8acb 283f 78a2 c53e 021d be3e
00000030: 496a 693f d87a 5b3f 56e8 213f d212 423f
00000040: 5aba c13e 93e2 2b3f 84e6 9c3e 86bd 243f
00000050: 1e3f d63e 16c3 d33e efca 7a3f 8bbc 303f
00000060: d62e d63e 20f0 323e 4624 7d3f 1291 df3e
00000070: 5069 173f 8cd6 033e 18d9 a33e e948 283f

lightcurve_encoder.embedding_mag.weight f4 [32, 1]
0.4522558 0.70582056 0.8326789 0.86070365 0.48472038 0.27958536 0.64891785 0.9883011
0.73545474 -0.7437621 -0.5879207 0.8700213 0.22217734 0.63378024 -0.49713203 -0.3249741
-0.44037414 0.63774633 -0.46409932 0.08961105 0.85453296 -0.010739085 0.14823313 -0.78723866
-0.6766136 -0.53162754 0.09163781 -0.45317867 0.7344227 0.39713317 -0.13553183 -0.14615987
00000000: 128e e73e a8b0 343f 722a 553f 1357 5c3f
00000010: 452d f83e d025 8f3e 7b1f 263f 4d01 7d3f
00000020: c346 3c3f 3167 3ebf f981 16bf b7b9 5e3f
00000030: 7582 633e 6c3f 223f 1788 febe 0163 a6be
00000040: b878 e1be 5843 233f 6d9e edbe 0086 b73d
00000050: acc2 5a3f fdf2 2fbc 6dca 173e 7988 49bf
00000060: 8d36 2dbf be18 08bf 9bac bb3d 0907 e8be
00000070: 2003 3c3f 0a55 cb3e dbc8 0abe efaa 15be

lightcurve_encoder.embedding_mag.bias f4 [32]
-0.81580126 -0.9271556 0.5144366 0.109470956 -0.081329845 0.15615079 -0.62148154 -0.36279476
-0.8884612 -0.9075921 0.9412447 -0.65093064 0.41027325 0.87423277 0.72662383 -0.16704024
-0.64596295 -0.86179465 -0.27980667 0.8461691 -1.0287626 0.7933071 0.1858104 0.031038813
-0.6147844 0.49057373 0.7565191 0.7601843 0.120031655 -0.50489634 -0.40133297 -0.15735781
00000000: 5ad8 50bf 125a 6dbf 1eb2 033f 4f32 e03d
00000010: 4390 a6bd fee5 1f3e 6a19 1fbf 3cc0 b9be
00000020: 3172 63bf f557 68bf 6af5 703f 64a3 26bf
00000030: 560f d23e b8cd 5f3f 0504 3a3f 990c 2bbe
00000040: d45d 25bf 939e 5cbf d242 8fbe 8a9e 583f
00000050: 7eae 83bf 2d16 4b3f 1545 3e3e 1c45 fe3c
00000060: 8362 1dbf 7b2c fb3e 3cab 413f 709b 423f
00000070: 28d3 f53d e340 01bf 847b cdbe 6822 21be

lightcurve_encoder.transformer.tblocks.0.attention.tokeys.weight f4 [32, 32]
-0.13375689 0.17319606 -0.033843294 0.1275119 -0.09561715 -0.118160196 0.029905932 0.059060656
-0.08184648 -0.05706802 -0.15746363 0.041509584 0.11322307 0.047883704 0.1134776 0.059577007
0.03061907 -0.13789299 0.11404577 0.025769282 -0.031710234 0.042000785 -0.17287445 -0.16234507
-0.0060224175 0.14321192 0.14551151 -0.013618904 0.12624648 0.09465857 -0.16918218 -0.051527232
0.15837651 0.056539644 -0.1752021 -0.20027825 0.016094375 -0.13209565 0.021402067 0.012759132
0.08145215 0.053618677 0.051124647 -0.0012057594 0.0015064367 -0.16811192 -0.08517414 0.18939087
-0.14810216 0.16955107 0.16962795 -0.006317614 0.08711195 -0.11594794 0.054536227 -0.080694295
0.08203728 0.017330807 0.06942128 0.10962727 0.095858045 -0.099360034 -0.024496041 0.01131555
0.016260523 -0.09599272 -0.16479516 0.027442731 -0.118521966 -0.025839182 0.099018544 0.015820485
-0.04824774 0.06682985 -0.1338437 0.11002701 -0.16935855 -0.014184631 0.12921755 -0.17135526
-0.056078017 -0.14487347 0.15327986 -0.07341623 -0.033736415 -0.08382161 0.07883503 0.050292168
0.18337594 -0.15179606 -0.07305451 -0.032787517 0.13734525 -0.19969925 0.10551988 0.010670217
0.03606152 -0.14976832 -0.01895249 0.071561545 0.13235572 -0.046040285 -0.13286474 -0.0608051
0.13524015 -0.13099146 0.06055445 0.03769571 0.07309974 -0.035380308 0.069520555 0.015922844
-0.13072625 0.11490009 0.09315015 0.07131134 0.18067223 -0.15574746 -0.19184418 0.096336216
-0.025558561 -0.1513858 0.14113368 -0.10103763 0.06479051 0.0430553 -0.14584167 -0.053423908
0.14906138 0.02771718 -0.017964365 -0.14998934 -0.058281604 0.010933316 0.042052556 -0.039334767
-0.15141664 0.01078673 -0.046977106 0.04799412 0.11378351 0.065603636 -0.086013466 0.040979523
-0.05373271 0.090707615 -0.116315424 0.18147509 -0.052179523 0.07936566 0.094431244 -0.06885259
0.10170189 0.033039168 -0.15438922 0.09833219 -0.1349169 0.046824783 -0.038677916 0.10281389
0.14899792 0.06603342 -0.05692567 0.08740188 0.05112024 -0.16230924 -0.14279698 0.14277616
-0.06376534 -0.09579037 -0.07703706 0.15011927 -0.110642165 0.034437608 -0.053096496 0.0153621435
0.100081146 -0.14488003 -0.041339483 0.05198175 0.15102072 -0.0074921325 -0.104997426 -0.14444311
-0.09376323 -0.13106015 0.026295058 -0.13971652 -0.092698924 -0.1032151 -0.12571287 0.023909692
-0.11971495 0.036657263 0.08672305 -0.051238306 0.09823924 0.054307014 -0.093601204 -0.1386405
0.1459695 0.064634696 0.078750916 -0.07192109 -0.14509447 -0.060277306 0.1557475 0.12123145
0.06174851 -0.1648238 0.1255333 0.11165958 -0.058974996 -0.07672741 -0.09793118 -0.13461661
0.12283917 -0.050794967 -0.034117278 0.044747323 -0.17053676 -0.10610882 -0.085563414 -0.08293418
-0.07335505 -0.05769338 0.0465012 -0.14471953 -0.09829415 0.051074732 -0.11776889 -0.08017643
0.0382593 0.007124687 -0.11466649 0.13832065 -0.10079135 -0.083729945 0.011077825 0.05843642
-0.017970068 0.13259523 -0.16382204 0.1411828 -0.090342306 -0.028562112 0.05176236 0.18500692
0.09576179 0.04816542 0.16237222 0.082233295 0.032915734 0.09449135 -0.13998272 0.07910384
00000000: 91f7 08be 4f5a 313e 449f 0abd 7b92 023e
00000010: edd2 c3bd f9fd f1bd 49fd f43c 96e9 713d
00000020: 219f a7bd 28c0 69bd 253e 21be f405 2a3d
00000030: 7fe1 e73d b421 443d f266 e83d 0507 743d
00000040: d8d4 fa3c d233 0dbe d490 e93d 1a1a d33c
00000050: 97e2 01bd 0409 2c3d 0006 31be c93d 26be
00000060: b357 c5bb 25a6 123e f800 153e d321 5fbc
00000070: c246 013e 5adc c13d 183e 2dbe 380e 53bd
00000080: 742d 223e 1d96 673d 2e68 33be be15 4dbe
00000090: 5ad8 833c 1544 07be 6353 af3c ae0b 513c
000000a0: 63d0 a63d 429f 5b3d 1468 513d 920a 9eba
000000b0: a173 c53a 8825 2cbe c86f aebd aeef 413e
000000c0: 18a8 17be cc9e 2d3e f3b2 2d3e fd03 cfbb
000000d0: c067 b23d 1d76 edbd 6161 5f3d 0d43 a5bd
000000e0: 2903 a83d 56f9 8d3c be2c 8e3d 4384 e03d
000000f0: 3951 c43d 467d cbbd ecab c8bc db64 393c
00000100: ca34 853c d597 c4bd 10c0 28be 94cf e03c
00000110: a5bb f2bd b1ac d3bc 3cca ca3d f699 813c
00000120: 6c9f 45bd 17de 883d 530e 09be d755 e13d
00000130: 546c 2dbe a866 68bc 9b51 043e c177 2fbe
00000140: 10b2 65bd b659 14be 65f5 1c3e 405b 96bd
00000150: 322f 0abd aaaa abbd 4374 a13d 29ff 4d3d
00000160: e7c6 3b3e 6d70 1bbe 9a9d 95bd 344c 06bd
00000170: 3ca4 0c3e f67d 4cbe cf1a d83d 22d2 2e3c
00000180: 3fb5 133d de5c 19be 4142 9bbc dc8e 923d
00000190: 4288 073e bd94 3cbd b20d 08be c50e 79bd
000001a0: 657c 0a3e a022 06be f107 783d d166 1a3d
000001b0: 51b5 953d f1ea 10bd cb60 8e3d a070 823c
000001c0: 1add 05be bd50 eb3d 81c5 be3d ae0b 923d
000001d0: 2402 393e 437c 1fbe cd72 44be ec4b c53d
000001e0: 3060 d1bc e104 1bbe 5985 103e d1ec cebd
000001f0: e3b0 843d c15a 303d 8557 15be 07d3 5abd
00000200: 8ca3 183e 240f e33c 012a 93bc ce96 19be
00000210: b1b8 6ebd a721 333c 4d3f 2c3d 7e1d 21bd
00000220: f70c 1bbe d3ba 303c 116b 40bd 7b95 443d
00000230: 5407 e93d 335b 863d d427 b0bd 25da 273d
00000240: d516 5cbd eac4 b93d c836 eebd 9bd4 393e
00000250: 32ba 55bd 778a a23d 2b65 c13d 9602 8dbd
00000260: 1549 d03d 1454 073d 3518 1ebe 6362 c93d
00000270: a827 0abe 58cb 3f3d bc6c 1ebd 1790 d23d
00000280: e992 183e 883c 873d e42a 69bd c2ff b23d
00000290: 7563 513d 6534 26be 5f39 12be ea33 123e
000002a0: 6797 82bd be2d c4bd 9bc5 9dbd deb8 193e
000002b0: 5c98 e2bd 730e 0d3d b67b 59bd 80b1 7b3c
000002c0: 58f7 cc3d 6e5b 14be 9753 29bd d1ea 543d
000002d0: 2da5 1a3e 9080 f5bb e408 d7bd e5e8 13be
000002e0: f006 c0bd a234 06be bc68 d73c d911 0fbe
000002f0: efd8 bdbd 7062 d3bd e0ba 00be 42de c33c
00000300: 1d2d f5bd ed25 163d db9b b13d 42df 51bd
00000310: a831 c93d 0871 5e3d fdb1 bfbd c6f7 0dbe
00000320: 0779 153e 325f 843d 2948 a13d 5d4b 93bd
00000330: a593 14be 56e5 76bd 467c 1f3e 3248 f83d
00000340: 01ec 7c3d 92c7 28be cd8b 003e c7ad e43d
00000350: c48f 71bd 4323 9dbd 2490 c8bd f0d8 09be
00000360: 1a93 fb3d 620e 50bd 8fbe 0bbd f848 373d
00000370: 30a1 2ebe 954f d9bd df3b afbd 65d9 a9bd
00000380: 2c3b 96bd e54f 6cbd 0b78 3e3d 5b31 14be
00000390: 714e c9bd bd33 513d d130 f1bd 8a33 a4bd
000003a0: c9b5 1c3d 3576 e93b 44d6 eabd eea3 0d3e
000003b0: b26b cebd 9b7a abbd c47f 353c 075b 6f3d
000003c0: f735 93bc 0bc7 073e f7c0 27be 3992 103e
000003d0: 6305 b9bd 17fb e9bc c504 543d 7472 3d3e
000003e0: c21e c43d 1a49 453d e744 263e ee69 a83d
000003f0: a6d2 063d ae84 c13d a157 0fbe 3201 a23d

lightcurve_encoder.transformer.tblocks.0.attention.toqueries.weight f4 [32, 32]
-0.13889329 0.1055657 0.079829596 0.011531547 0.0147417765 0.12821326 0.0717699 0.031034993
-0.047622163 0.0023064613 0.093748145 0.16874658 0.16930553 -0.025882518 -0.17003551 0.09884739
0.078152455 -0.061376948 0.015898056 -0.15638107 0.026638536 0.1136198 0.11760695 -0.012821071
-0.025373368 0.06347702 0.042975325 -0.16227095 -0.09491531 -0.14712669 -0.079724744 0.09269214
0.08922082 -0.030280454 0.022639817 -0.11776186 0.11001961 0.1398536 0.19389482 0.1990981
0.046036888 -0.08549355 0.06377253 -0.0037739077 -0.09026855 0.009650667 0.1473852 0.014919759
0.0553118 -0.041779406 -0.14650784 0.11021217 -0.039867375 -0.10423498 -0.045044784 0.113128915
-0.060381934 0.041174505 0.12862964 0.09971107 0.1498755 -0.08744492 0.012390656 -0.053205863
-0.1224669 0.15331843 -0.033879068 0.1608401 -0.03937039 -0.16052724 -0.09380784 -0.17688186
-0.039336916 -0.055750173 0.014829838 -0.042855326 -0.0030320506 -0.013495573 0.16279933 0.008908797
-0.012698447 -0.0702395 -0.0031130523 -0.022140522 0.010728709 0.14525424 -0.16228853 0.103856795
0.102025844 -0.16864972 0.122380726 0.024331067 0.16264443 -0.15156507 0.12766384 0.10678821
-0.1585771 0.06794537 0.057497147 0.007034726 -0.13690819 0.067775615 0.12766603 -0.02888632
0.1210987 -0.045791402 0.040178902 0.11064259 0.15805088 0.017978068 -0.103617474 0.048081808
-0.09993489 -0.13871147 0.044703763 0.03819625 -0.033430126 0.1460488 -0.0407097 0.008275139
-0.0797018 -0.036800522 -0.07599571 -0.029443208 -0.093642466 0.17216806 -0.08507399 -0.06908063
-0.0909621 0.08390787 0.12214152 -0.04499938 -0.1204777 0.020209461 0.041457124 0.07931827
0.00600312 -0.1666457 -0.044059195 -0.14461304 0.060471367 -0.11852555 -0.15515125 -0.173217
0.11106698 0.04342469 -0.1741012 -0.048394684 0.12420703 -0.16425046 -0.020489946 0.012255964
-0.047831714 -0.05164111 -0.027760023 -0.0134576345 -0.014276826 -0.07006306 -0.012976942 0.05363406
0.09010995 -0.100052714 0.1048834 -0.07837129 0.13923272 -0.09320607 -0.13100119 0.07167787
-0.042986277 0.13429956 -0.16880618 -0.015667984 0.032593828 -0.12759316 -0.02940452 -0.1079851
0.08382239 0.10829465 0.14286722 0.16534707 0.08980448 -0.0825428 0.15260975 0.095032245
0.019757954 -0.18207014 -0.09379216 -0.1671115 -0.17184056 -0.044869397 -0.015213303 -0.068445325
-0.11904711 -0.121810704 0.08833432 0.1182797 0.007981765 -0.016184086 0.08453709 -0.21338294
-0.103337996 0.00013287379 0.05668905 -0.13476907 -0.09054594 0.013195964 -0.05433197 -0.023128957
-0.06433406 -0.08191612 -0.10309336 -0.063761644 -0.20237343 0.17035979 -0.055402856 0.026116751
0.006467862 -0.013477799 0.16131619 0.04956185 -0.1619866 0.10683681 0.13229084 -0.073447034
-0.063737996 -0.03600405 0.041328363 -0.120671324 0.1323796 0.1417393 -0.059320554 -0.15677954
0.17633834 -0.15346196 -0.03536651 -0.0048987595 0.017889068 -0.08210335 -0.10644267 -0.10962953
0.03599468 0.058829524 0.0070157023 0.040195778 -0.0073404224 -0.114380196 -0.025788724 0.146236
-0.08577586 -0.036863998 0.1380582 0.1461581 -0.08146151 0.014230394 -0.14477728 -0.017798135
00000000: 0b3a 0ebe d432 d83d b37d a33d d0ee 3c3c
00000010: 7e87 713c 564a 033e 19fc 923d 193d fe3c
00000020: 750f 43bd 0028 173b 07ff bf3d e7cb 2c3e
00000030: 6e5e 2d3e 9307 d4bc ca1d 2ebe 8070 ca3d
00000040: 650e a03d 6566 7bbd a43c 823c 5c22 20be
00000050: 0f39 da3c 7fb1 e83d eadb f03d 780f 52bc
00000060: cfdb cfbc 3d00 823d e506 303d 5b2a 26be
00000070: f562 c2bd 61a8 16be ba46 a3bd 60d5 bd3d
00000080: 68b9 b63d b70e f8bc 2377 b93c 212d f1bd
00000090: f651 e13d c835 0f3e 5d8c 463e 5fe0 4b3e
000000a0: 2d91 3c3d 3e17 afbd 2c9b 823d aa53 77bb
000000b0: b8de b8bd d51d 1e3c 25ec 163e 0172 743c
000000c0: a08e 623d e220 2bbd 2706 16be ebb6 e13d
000000d0: f94b 23bd 2679 d5bd e180 38bd 22b0 e73d
000000e0: 0c53 77bd 99a6 283d 7db7 033e 5135 cc3d
000000f0: f778 193e 5216 b3bd 2e02 4b3c 64ee 59bd
00000100: edcf fabd 82ff 1c3e c7c4 0abd 44b3 243e
00000110: d942 21bd 4161 24be 531e c0bd 8520 35be
00000120: bf1f 21bd 4b5a 64bd d9f8 723c 1189 2fbd
00000130: 5eb5 46bb 891c 5dbc deb4 263e 34f6 113c
00000140: 260d 50bc bad9 8fbd 5a04 4cbb 0a60 b5bc
00000150: 78c7 2f3c 87bd 143e f72e 26be dfb2 d43d
00000160: edf2 d03d 83b2 2cbe bfa2 fa3d f251 c73c
00000170: 438c 263e e033 1bbe 4fba 023e c7b3 da3d
00000180: 0962 22be f126 8b3d 2182 6b3d 8f83 e63b
00000190: a931 0cbe f1cd 8a3d e2ba 023e 01a3 ecbc
000001a0: 9802 f83d c48f 3bbd a292 243d 9598 e23d
000001b0: 17d8 213e be46 933c 6635 d4bd 6ef1 443d
000001c0: aaaa ccbd 610a 0ebe 4b1b 373d ac73 1c3d
000001d0: 07ee 08bd d18d 153e 37bf 26bd 7394 073c
000001e0: b33a a3bd 25bc 16bd a4a3 9bbd e232 f1bc
000001f0: 9fc7 bfbd d34c 303e 463b aebd 257a 8dbd
00000200: 564a babd e4d7 ab3d 5525 fa3d 4551 38bd
00000210: 03bd f6bd 508e a53c f2ce 293d 9e71 a23d
00000220: d2b5 c43b 2ca5 2abe 6a77 34bd 7115 14be
00000230: d3b0 773d 86bd f2bd f8df 1ebe cc5f 31be
00000240: 1677 e33d 16de 313d 9647 32be 8139 46bd
00000250: 4160 fe3d 4631 28be 88da a7bc 3dcd 483c
00000260: 30eb 43bd a185 53bd fd68 e3bc 697d 5cbc
00000270: 59e9 69bc 397d 8fbd 3d9d 54bc 63af 5b3d
00000280: 918b b83d 70e8 ccbd 1ccd d63d 2081 a0bd
00000290: 0693 0e3e d3e2 bebd 2d25 06be d9cb 923d
000002a0: 6112 30bd d385 093e 87db 2cbe 255a 80bc
000002b0: 1b81 053d c8a7 02be bfe1 f0bc 4b27 ddbd
000002c0: 13ab ab3d 96c9 dd3d c94b 123e be50 293e
000002d0: 69eb b73d 330c a9bd bb45 1c3e 44a0 c23d
000002e0: 6fdb a13c 9870 3abe 1b16 c0bd 471f 2bbe
000002f0: f9f6 2fbe f9c8 37bd 3841 79bc 102d 8cbd
00000300: f9ce f3bd e477 f9bd a0e8 b43d a13c f23d
00000310: f3c5 023c 7d94 84bc c821 ad3d 0f81 5abe
00000320: dfa2 d3bd 0954 0b39 c732 683d e700 0abe
00000330: 2670 b9bd e233 583c 338b 5ebd f078 bdbc
00000340: 93c1 83bd a4c3 a7bd 9d22 d3bd 7795 82bd
00000350: fb3a 4fbe cc72 2e3e 1bee 62bd ccf2 d53c
00000360: 5cf0 d33b fcd1 5cbc 1230 253e 5e01 4b3d
00000370: d1df 25be 42cd da3d 4077 073e 666b 96bd
00000380: 1189 82bd fc78 13bd ee47 293d 8722 f7bd
00000390: 858e 073e 1b24 113e 1cfa 72bd d18a 20be
000003a0: 0a92 343e 2225 1dbe 79dc 10bd c685 a0bb
000003b0: 188c 923c cd25 a8bd 9dfe d9bd 7285 e0bd
000003c0: 286f 133d 3af7 703d fae3 e53b 54a4 243d
000003d0: ed87 f0bb 2a40 eabd e042 d3bc e4be 153e
000003e0: 41ab afbd b4fe 16bd 215f 0d3e 78aa 153e
000003f0: 4bd5 a6bd 9926 693c 7f40 14be 65cd 91bc

lightcurve_encoder.transformer.tblocks.0.attention.tovalues.weight f4 [32, 32]
-0.09904726 0.02170285 0.14441425 0.007024312 -0.15980992 -0.16396478 0.07534905 -0.10612511
0.1016881 0.026314978 -0.1429749 -0.08230093 0.12828964 0.038070902 -0.0062845033 -0.111217156
-0.037083503 -0.12253075 0.04929433 -0.08668101 -0.11947461 -0.034675688 -0.13002509 -0.039929755
-0.09030651 -0.06779612 0.00827931 -0.16745532 0.10459734 0.11524758 0.122052155 -0.2176111
-0.09058192 0.015942344 0.018225025 -0.009074477 -0.031224608 -0.1655539 -0.15618886 -0.05824667
-0.17225263 0.17020199 0.12396077 0.15184933 0.11513107 -0.08228263 -0.03735477 -0.030531274
-0.045568664 0.15723087 0.16635828 -0.15358053 0.08891966 -0.0071317195 -0.00828369 0.058820233
0.020447489 0.06993881 -0.018462505 0.13852474 -0.11445028 0.008211047 0.07892515 -0.19552197
-0.05995109 0.022652222 -0.11536647 -0.10390331 0.10257395 0.05441763 0.035300445 0.123286664
0.09784797 -0.056042105 -0.06866444 -0.019425927 0.16139495 -0.10069818 0.012146344 -0.15003324
0.0660549 0.12450995 0.06533085 -0.054680616 -0.06081788 0.045371033 0.15445378 0.12189702
-0.012745959 -0.053323984 0.11934643 -0.030172199 0.09054181 0.09271426 0.13651077 -0.20181112
-0.014186288 -0.05239875 -0.16181882 0.11084607 0.13248529 -0.040636573 -0.12527128 -0.07220739
0.042243183 -0.16547325 0.11951047 -0.1344015 0.052152894 -0.12795426 -0.054744136 -0.07301507
0.0048835278 -0.13473834 -0.078799605 0.010426654 -0.115685195 0.19617245 -0.08869903 0.1561665
0.086433396 0.049101755 0.068833224 -0.036764193 -0.1614267 -0.06655121 0.15033795 -0.07647113
0.05215347 -0.13067555 0.046509586 0.049975313 -0.123168886 0.14191103 -0.06059226 -0.10194893
-0.0069755455 -0.12068139 -0.15151848 0.18729554 0.13943996 0.039434765 -0.083663024 -0.199524
0.14112161 0.088059366 -0.13955218 -0.16664878 0.12916411 0.13017651 0.114573784 0.009487217
0.05315596 0.09359117 0.08753128 -0.19732787 -0.064500295 0.17427266 0.121737055 -0.15776265
0.05992219 0.050498325 0.12559213 0.13536024 -0.16028513 0.09903465 0.041278902 0.081126824
-0.064558655 -0.057032686 -0.056627773 -0.10558986 -0.084505506 0.023750186 0.113590956 0.13609567
0.106532246 0.14128898 0.086778395 0.045699883 -0.17052536 0.0994762 -0.054443624 0.14449541
0.14982581 0.042783972 -0.14287224 0.09278772 -0.12889647 0.07100612 0.15502779 -0.051980037
-0.13584188 -0.12976798 -0.018557861 -0.007551822 0.04470573 -0.17340043 0.0032526264 -0.16833216
0.10145718 0.020920163 0.14064927 0.05026388 0.15041997 0.15476692 0.056157134 -0.11586121
0.15025426 -0.15919642 -0.064087324 -0.15343507 -0.17079556 -0.011847361 -0.08695606 -0.117385656
0.16688783 0.1318294 -0.080626085 0.07453704 -0.0914749 -0.15719773 -0.02755891 0.047742143
-0.022583412 -0.1209703 -0.110242985 -0.07631489 -0.016104372 -0.0761611 -0.079266936 0.13024202
-0.09637239 -0.19816461 -0.16226618 0.1915527 -0.050187644 0.16930218 -0.14297691 -0.10426548
0.05618471 -0.12635052 0.12426251 0.024197469 -0.13404399 -0.14211622 -0.11884714 -0.028181756
0.030407669 -0.06874548 -0.09720497 -0.108232945 -0.09454849 0.14319573 0.067419715 0.091249645
00000000: 4ad9 cabd 2dca b13c 54e1 133e 332c e63b
00000010: 36a5 23be 62e6 27be 9a50 9a3d 1f58 d9bd
00000020: da41 d03d 8292 d73c 0368 12be 648d a8bd
00000030: 5c5e 033e 3cf0 1b3d 3cee cdbb d2c5 e3bd
00000040: dfe4 17bd 67f1 fabd dae8 493d d085 b1bd
00000050: 1baf f4bd 1808 0ebd 4c25 05be 628d 23bd
00000060: 9ff2 b8bd b1d8 8abd f1a5 073c 6879 2bbe
00000070: 2137 d63d ec06 ec3d 7bf6 f93d 72d5 5ebe
00000080: 0483 b9bd 8599 823c a64c 953c 1dad 14bc
00000090: c0ca ffbc f686 29be f9ef 1fbe 0f94 6ebd
000000a0: fe62 30be 6e49 2e3e 25df fd3d 647e 1b3e
000000b0: d7c9 eb3d cc83 a8bd 5101 19bd b91c fabc
000000c0: 35a6 3abd 2101 213e d359 2a3e 3744 1dbe
000000d0: 831b b63d 33b1 e9bb 50b8 07bc 7ced 703d
000000e0: 7e81 a73c 143c 8f3d ae3e 97bc 6ed9 0d3e
000000f0: e964 eabd a187 063c 82a3 a13d e936 48be
00000100: 468f 75bd 2791 b93c 4145 ecbd 42cb d4bd
00000110: 4b12 d23d 05e5 5e3d 3397 103d b87d fc3d
00000120: 8464 c83d 688c 65bd f19f 8cbd 1f23 9fbc
00000130: b844 253e d93a cebd 7601 473c 50a2 19be
00000140: cb47 873d 13ff fe3d 2ecc 853d c8f8 5fbd
00000150: 2b1c 79bd fad6 393d 2229 1e3e 25a5 f93d
00000160: 6dd4 50bc 406a 5abd e76b f43d b02b f7bc
00000170: fc6d b93d f9e0 bd3d 7bc9 0b3e 93a7 4ebe
00000180: 9b6d 68bc 12a0 56bd d5b3 25be 4403 e33d
00000190: 39aa 073e 8972 26bd 1d47 00be 78e1 93bd
000001a0: 3007 2d3d d271 29be e8c1 f43d 8ca0 09be
000001b0: 469e 553d 7106 03be 633b 60bd ed88 95bd
000001c0: 0006 a03b d9f8 09be b061 a1bd 8ed4 2a3c
000001d0: 5cec ecbd 6ee1 483e d6a7 b5bd 1cea 1f3e
000001e0: fe03 b13d ec1e 493d 6ff8 8c3d 0d96 16bd
000001f0: 0a4d 25be 004c 88bd 31f2 193e e59c 9cbd
00000200: e19e 553d d0cf 05be d680 3e3d eab2 4c3d
00000210: f83f fcbd 2051 113e 972f 78bd 9aca d0bd
00000220: 1e93 e4bb ce27 f7bd a927 1bbe 67ca 3f3e
00000230: 59c9 0e3e 5986 213d 8557 abbd 0550 4cbe
00000240: 2f82 103e 7858 b43d c4e6 0ebe faa5 2abe
00000250: 9943 043e fe4c 053e a9a5 ea3d 4670 1b3c
00000260: 10ba 593d baac bf3d 9a43 b33d 5110 4abe
00000270: bb18 84bd 8874 323e 4751 f93d 888c 21be
00000280: f870 753d 55d7 4e3d 399b 003e e09b 0a3e
00000290: c921 24be aed2 ca3d 1114 293d d225 a63d
000002a0: 5437 84bd 1b9b 69bd 86f2 67bd 7f3f d8bd
000002b0: 3911 adbd c08f c23c 60a2 e83d aa5c 0b3e
000002c0: 942d da3d 0fae 103e dfb8 b13d cd2f 3b3d
000002d0: 339e 2ebe 2eba cb3d 4700 5fbd 9bf6 133e
000002e0: f06b 193e 3f3e 2f3d 1a4d 12be 7d07 be3d
000002f0: 70fd 03be a86b 913d 9bbf 1e3e 05e9 54bd
00000300: 221a 0bbe e6e1 04be a806 98bc 4675 f7bb
00000310: 5b1d 373d e28f 31be 042a 553b 445f 2cbe
00000320: c8c8 cf3d c360 ab3c 5d06 103e 80e1 4d3d
00000330: b107 1a3e 387b 1e3e 0605 663d a448 edbd
00000340: 41dc 193e 6304 23be 3740 83bd 151e 1dbe
00000350: 08e5 2ebe 6f1b 42bc 0516 b2bd e467 f0bd
00000360: a5e4 2a3e 49fe 063e 4a1f a5bd e0a6 983d
00000370: 3157 bbbd 71f8 20be 39c3 e1bc 448d 433d
00000380: d900 b9bc 47bf f7bd 13c7 e1bd fb4a 9cbd
00000390: 51ed 83bc 5afa 9bbd b456 a2bd 2a5e 053e
000003a0: e35e c5bd aaeb 4abe 1b29 26be 6426 443e
000003b0: 8f91 4dbd 8d5d 2d3e 8a68 12be 2489 d5bd
000003c0: f021 663d 0862 01be 587d fe3d c539 c63c
000003d0: d442 09be ea86 11be 2166 f3bd 6ddd e6bc
000003e0: 8119 f93c 6eca 8cbd 6613 c7bd 3ca9 ddbd
000003f0: a4a2 c1bd e7a1 123e 5913 8a3d 18e1 ba3d

lightcurve_encoder.transformer.tblocks.0.attention.unifyheads.weight f4 [32, 32]
-0.089191 -0.16873083 0.03214685 0.056723036 -0.025693445 0.1039364 0.15420847 -0.123868205
0.04922198 0.06064302 0.050548133 0.110785775 -0.15433362 0.15311825 -0.04114235 -0.080475435
0.14283845 -0.05617696 0.084359184 0.008489408 -0.06321844 0.14215946 0.029022597 -0.102548115
-0.16327521 -0.1344553 -0.060571995 -0.033609632 0.009825407 -0.13379385 0.15396748 0.15468049
0.014672768 0.096634425 0.0108521525 0.023955256 0.1013852 0.022327764 -0.09267264 0.111515045
-0.16666111 -0.15378183 -0.062221218 -0.0057549295 0.1781564 0.022838436 0.02370049 -0.017958717
-0.13537398 0.010995292 -0.03369514 -0.0040278207 -0.011670237 -0.0038364048 -0.028029762 0.15910096
-0.091744 0.15936834 0.03876716 0.13144708 0.05284882 0.084872924 -0.022789143 -0.015291903
-0.14203422 0.093741626 0.14782022 0.1140018 0.060276657 -0.13467178 0.03301473 0.037600312
0.12309 -0.010287128 -0.052051287 -0.0064707967 0.17799914 -0.086910695 0.07390234 0.093360305
0.011875748 0.023645626 -0.14952429 0.027750362 -0.03146587 -0.1252415 0.17690445 0.17731026
0.12587826 -0.13986865 -0.06510253 -0.11985659 0.01236815 -0.15680857 0.055942588 -0.14037183
0.14306034 0.15181598 -0.07107836 0.03437822 0.059277143 0.0077208346 -0.07126244 0.094597295
-0.12626971 -0.0806951 -0.03310892 -0.119602636 0.18421902 -0.0978268 0.1105287 0.19204153
-0.17787857 -0.07529216 -0.11067654 0.12480773 -0.111034155 -0.04786543 0.061165817 -0.14366645
-0.12959713 0.03290257 0.17615712 0.13973823 0.0666857 -0.03980516 -0.06227097 -0.008250712
-0.054157443 -0.13862763 0.0036398368 0.037263107 0.028409595 0.072142676 0.17757367 -0.15660737
-0.058173344 0.03629634 -0.02017845 -0.12741269 -0.094510674 0.09030261 -0.1466473 -0.05573053
0.14901784 0.00958177 0.001309068 -0.042319372 -0.109839916 -0.16868828 -0.00815141 -0.011058434
0.06800204 0.08276738 -0.16986385 0.005775964 0.105773285 0.08111509 -0.13942686 0.07330994
-0.048637386 0.09197891 -0.098150454 0.17374869 0.028926246 0.030674089 0.08056187 -0.11138966
-0.14793071 -0.15425673 -0.061843723 0.07722937 -0.10648915 -0.060104527 0.0437912 -0.091853805
-0.22021095 0.019816406 0.15046866 -0.095200635 -0.12205763 -0.06346154 -0.13082212 0.1167811
-0.05770392 -0.15652274 -0.1364368 -0.13702837 -0.06418202 -0.092621006 0.12019146 -0.021279838
-0.036478177 -0.17927493 -0.09339559 0.071936995 0.159362 0.07881966 0.09971016 0.14987388
-0.097295135 -0.18863654 0.110055566 0.11002805 0.1746829 -0.07684512 0.14726861 0.078124054
0.0014323761 -0.12077431 -0.09667047 0.10285973 0.103333555 0.12003606 -0.08906428 -0.10956026
0.061814055 0.12962204 0.092926174 0.06747312 0.019451689 0.04098204 -0.13059288 -0.063773155
-0.011224589 0.0036685236 0.11096517 0.030424586 -0.10100706 0.05049389 -0.108736545 -0.13961454
-0.005339932 0.13219531 -0.073346406 -0.1211261 0.16561766 0.021309635 0.03609484 -0.18156412
-0.08160105 0.014148367 0.08019655 0.056809153 0.047265913 0.08001344 0.053483203 0.041872207
-0.08131377 0.009214368 -0.101302646 -0.07543278 0.17144835 -0.0580562 0.17661206 0.12663916
00000000: c5a9 b6bd c6c7 2cbe 6aac 033d 6a56 683d
00000010: 0f7b d2bc 9bdc d43d d3e8 1d3e 9dae fdbd
00000020: fd9c 493d d164 783d 8f0b 4f3d a7e3 e23d
00000030: a209 1ebe 08cb 1c3e e184 28bd 4ed0 a4bd
00000040: 3e44 123e d019 66bd 82c4 ac3d 2817 0b3c
00000050: ab78 81bd 4092 113e ccc0 ed3c bf04 d2bd
00000060: 9e31 27be a6ae 09be 571a 78bd 41aa 09bd
00000070: befa 203c 4101 09be a7a9 1d3e 9064 1e3e
00000080: 0d66 703c 45e8 c53d 3acd 313c d03d c43c
00000090: 0ba3 cf3d b7e8 b63c 27cb bdbd 0062 e43d
000000a0: 36a9 2abe fc78 1dbe addb 7ebd d993 bcbb
000000b0: a26e 363e ac17 bb3c 8827 c23c 291e 93bc
000000c0: 7a9f 0abe 9925 343c ea03 0abd cffb 83bb
000000d0: 8634 3fbc 316c 7bbb ac9e e5bc 5deb 223e
000000e0: 47e4 bbbd 7431 233e 50ca 1e3d 109a 063e
000000f0: 0178 583d dbd1 ad3d 4cb0 babc e48a 7abc
00000100: 6b71 11be 9cfb bf3d 2f5e 173e c779 e93d
00000110: a8e4 763d 66e7 09be 743a 073d c902 1a3d
00000120: 9c16 fc3d 588b 28bc bb33 55bd fa08 d4bb
00000130: 6845 363e 3cfe b1bd 1c5a 973d b033 bf3d
00000140: 7f92 423c 79b4 c13c e51c 19be ba54 e33c
00000150: 5be2 00bd 4f3f 00be 7126 353e d290 353e
00000160: 3be6 003e ba39 0fbe 7a54 85bd 5f77 f5bd
00000170: c8a3 4a3c 6d92 20be 0e24 653d a2bd 0fbe
00000180: 697e 123e a675 1b3e 8891 91bd 2dd0 0c3d
00000190: 97cc 723d 0eff fc3b 0bf2 91bd 3abc c13d
000001a0: d94c 01be 7943 a5bd 389d 07bd 3af2 f4bd
000001b0: e9a3 3c3e 6b59 c8bd df5c e23d 89a6 443e
000001c0: cd25 36be c732 9abd 62aa e2bd 329b ff3d
000001d0: e065 e3bd 8b0e 44bd 0289 7a3d 4c1d 13be
000001e0: 1cb5 04be d8c4 063d 8862 343e 8a17 0f3e
000001f0: 8392 883d bc0a 23bd d80f 7fbd ff2d 07bc
00000200: 32d4 5dbd 67f4 0dbe 548a 6e3b 33a1 183d
00000210: 3dbb e83c 8abf 933d dfd5 353e af5d 20be
00000220: 2c47 6ebd 79ab 143d 474d a5bc 7978 02be
00000230: d08e c1bd 93f0 b83d b62a 16be b245 64bd
00000240: 2298 183e dbfc 1c3c 0895 ab3a 1457 2dbd
00000250: c0f3 e0bd 9fbc 2cbe 7e8d 05bc 6f2e 35bc
00000260: a744 8b3d f281 a93d caf0 2dbe 4c44 bd3b
00000270: aa9f d83d ab1f a63d eac5 0ebe 8623 963d
00000280: ff37 47bd 705f bc3d 1b03 c9bd 2deb 313e
00000290: bcf6 ec3c 3a48 fb3c 9ffd a43d 4320 e4bd
000002a0: 267b 17be 7af5 1dbe d84f 7dbd 6f2a 9e3d
000002b0: fc16 dabd 2a30 76bd 675e 333d d91d bcbd
000002c0: fb7e 61be 0456 a23c 7514 1a3e 8df8 c2bd
000002d0: 5af9 f9bd 20f8 81bd 3cf6 05be ee2a ef3d
000002e0: f25a 6cbd 7f47 20be 17b6 0bbe 2a51 0cbe
000002f0: dd71 83bd 15b0 bdbd f126 f63d 0e53 aebc
00000300: 246a 15bd d993 37be 3046 bfbd b453 933d
00000310: cb2f 233e 346c a13d d734 cc3d 8a78 193e
00000320: ac42 c7bd f029 41be d064 e13d 6356 e13d
00000330: 13e0 323e f960 9dbd 95cd 163e 81ff 9f3d
00000340: 91be bb3a 8558 f7bd 2bfb c5bd 1fa8 d23d
00000350: 8ba0 d33d 77d5 f53d 5567 b6bd 2161 e0bd
00000360: bc30 7d3d a4bb 043e 1450 be3d 592f 8a3d
00000370: 2659 9f3c c9dc 273d 24ba 05be 809b 82bd
00000380: 57e7 37bc 9d6b 703b b541 e33d fb3c f93c
00000390: cadc cebd aed2 4e3d 44b1 debd 1df7 0ebe
000003a0: 99fa aebb 355e 073e a436 96bd f610 f8bd
000003b0: ad97 293e 8b91 ae3c 2fd8 133d f2eb 39be
000003c0: 741e a7bd 8dce 673c 173e a43d b7b0 683d
000003d0: e799 413d 16de a33d 3411 5b3d 3182 2b3d
000003e0: d587 a6bd dcf7 163c c377 cfbd 807c 9abd
000003f0: 2890 2f3e 57cc 6dbd cbd9 343e b2ad 013e

lightcurve_encoder.transformer.tblocks.0.attention.unifyheads.bias f4 [32]
-0.14256157 -0.069826886 -0.12126061 -0.12507676 0.05415248 -0.02156868 -0.12112479 0.14888503
-0.06300693 0.06191946 0.01817971 -0.06461493 -0.007934422 -0.04557726 0.07380411 -0.14848714
0.121651895 -0.028960554 -0.14105818 0.027566496 -0.08815081 0.079348706 0.11462517 0.08855915
-0.08052717 -0.07964767 -0.021167737 -0.044308007 0.106109 0.14366905 -0.050686426 0.1447835
00000000: a9fb 11be 6601 8fbd 7c57 f8bd 1f14 00be
00000010: fece 5d3d cdb0 b0bc 4610 f8bd 5175 183e
00000020: c709 81bd 429f 7d3d 9ded 943c d554 84bd
00000030: 61ff 01bc 39af 3abd 9c26 973d 030d 18be
00000040: a124 f93d af3e edbc 8e71 10be 22d3 e13c
00000050: 6988 b4bd 9381 a23d 9ac0 ea3d 805e b53d
00000060: 6eeb a4bd 511e a3bd f667 adbc 507c 35bd
00000070: ad4f d93d fb1d 133e 929c 4fbd 2042 143e

lightcurve_encoder.transformer.tblocks.0.norm1.weight f4 [32]
1.0039262 1.0170366 0.99304885 1.024277 0.98345125 0.9734716 1.0062188 0.9970731
0.9939398 1.0236987 1.0068992 1.0058362 1.0103278 1.0195746 1.031101 0.98249346
0.9944789 1.0251844 0.9880273 0.99553114 0.99200535 0.97301143 1.0054686 0.98977524
0.9667025 1.0252028 0.9946229 1.0166095 0.9944683 1.0036263 0.9798915 1.0257422
00000000: a780 803f 412e 823f 7338 7e3f 821b 833f
00000010: 76c3 7b3f 6f35 793f c7cb 803f 2f40 7f3f
00000020: d772 7e3f 8f08 833f 13e2 803f 3ebf 803f
00000030: 6c52 813f 6c81 823f 1efb 833f b184 7b3f
00000040: 2b96 7e3f 3e39 833f 5bef 7c3f 21db 7e3f
00000050: 10f4 7d3f 4717 793f 32b3 803f e961 7d3f
00000060: d179 773f d839 833f 9b9f 7e3f 4320 823f
00000070: 7995 7e3f d476 803f 2bda 7a3f 854b 833f

lightcurve_encoder.transformer.tblocks.0.norm1.bias f4 [32]
0.017660657 0.036588483 -0.0055659036 1.8578103e-05 -0.010499129 -0.0055269524 0.019232621 0.014984528
-0.01660898 0.028766252 -0.01159321 0.02014405 -0.009685438 0.009652048 -0.02915026 -0.0043084864
0.0018661208 0.021338796 0.020870348 -0.017740326 -0.003468356 -0.022503318 -0.014223117 0.010109881
0.04173588 -0.022744326 0.01571533 -0.032304313 0.03128838 0.0115592545 0.010419446 -0.007969131
00000000: 15ad 903c cedd 153d 2f62 b6bb 2cd8 9b37
00000010: 8a04 2cbc 701b b5bb bb8d 9d3c aa81 753c
00000020: 8e0f 88bc 34a7 eb3c 72f1 3dbc 2205 a53c
00000030: acaf 1ebc a023 1e3c 87cc eebc 342e 8dbb
00000040: a098 f43a b3ce ae3c 4bf8 aa3c 2954 91bc
00000050: 5c4d 63bb e158 b8bc 1408 69bc eaa3 253c
00000060: 3ef3 2a3d 4f52 babc 70bd 803c 8751 04bd
00000070: 3f28 003d 0763 3d3c 53b6 2a3c f590 02bc

lightcurve_encoder.transformer.tblocks.0.norm2.weight f4 [32]
1.018173 1.0132836 1.0003675 1.0224754 0.98104787 1.0029566 1.008439 0.99008024
0.97485197 1.044744 1.0092558 0.9927903 0.9832788 1.0080434 1.0305387 0.98884284
0.99339205 0.99758404 0.9829022 0.9942785 0.99245477 0.99406177 0.9811653 1.0035598
0.9848286 1.0226783 1.0035615 1.0226735 1.0057801 0.99245626 0.9793655 1.009943
00000000: 7e53 823f 47b3 813f 0b0c 803f 79e0 823f
00000010: f425 7b3f e260 803f 8714 813f e675 7d3f
00000020: e68f 793f 2cba 853f 4b2f 813f 8127 7e3f
00000030: 29b8 7b3f 9107 813f b1e8 833f ce24 7d3f
00000040: f14e 7e3f ab61 7f3f 7b9f 7b3f 0989 7e3f
00000050: 8411 7e3f d57a 7e3f a62d 7b3f a674 803f
00000060: ba1d 7c3f 1fe7 823f b474 803f f7e6 823f
00000070: 67bd 803f 9d11 7e3f b3b7 7a3f d045 813f

lightcurve_encoder.transformer.tblocks.0.norm2.bias f4 [32]
0.020389812 0.034480914 -0.0075326 0.0028771318 -0.019504342 0.0047703185 0.026591692 0.00988673
-0.016380709 0.027283233 -0.013130356 0.009100496 0.012775565 0.025221843 -0.027710987 -0.0017273605
0.014060734 0.020157516 0.011496816 -0.024030164 -0.0045679896 -0.021002004 -0.0015943286 0.008249873
0.045012917 -0.023511214 0.00872346 -0.026632551 0.023911329 0.00511334 -0.0022142904 -0.008454254
00000000: 8908 a73c dc3b 0d3d 07d4 f6bb 438e 3c3b
00000010: 92c7 9fbc 5550 9c3b d2d6 d93c f4fb 213c
00000020: d630 86bc 1681 df3c b420 57bc 3f1a 153c
00000030: 9a50 513c 0a9e ce3c 2702 e3bc 9a68 e2ba
00000040: fe5e 663c 6021 a53c 245d 3c3c e8da c4bc
00000050: 13af 95bb 650c acbc caf8 d0ba 7a2a 073c
00000060: 775f 383d 979a c0bc d8ec 0e3c 822c dabc
00000070: b1e1 c33c ce8d a73b a11d 11bb b683 0abc

lightcurve_encoder.transformer.tblocks.0.ff.0.weight f4 [128, 32]
-0.18823206 -0.104543544 -0.113094874 -0.074749 0.016640306 0.08897928 0.11329987 -0.05759398
-0.03767509 0.035331942 0.091002166 0.16747884 0.058683712 -0.1752674 0.11138214 -0.13345726
0.07831509 0.11703727 0.12998323 0.08040884 0.11067613 -0.038340256 -0.05378018 0.083197504
0.02456049 -0.16513559 0.082777254 -0.14324722 0.113209404 0.026012518 -0.048527766 -0.007130592
0.11996137 0.16595463 0.21920082 -0.021096472 -0.11672881 0.005615837 0.031578746 -0.07317532
0.10215361 -0.056821764 0.10417708 0.2026202 0.10197186 0.114292644 -0.066683754 0.12518588
-0.029160883 0.14316493 -0.15772614 0.16355713 0.17764604 -0.22571677 0.11530386 0.0940589
0.028135909 -0.09051462 0.15627152 0.124993846 0.058961537 -0.014093507 -0.15272304 -0.068675764
0.07753076 0.120785154 -0.1350813 0.19321841 0.031486075 0.019683428 0.15474944 0.15067002
0.10034307 -0.0862084 -0.17512208 0.15785725 -0.0589752 -0.038097516 -0.0794809 -0.16948207
0.028745 0.16498828 0.13792008 -0.06401868 0.18350023 -0.1311486 -0.075518176 0.02072606
-0.045227733 -0.07454246 -0.04992863 0.015259384 0.038255118 0.06685731 0.0623552 -0.23091178
0.10207286 0.06023352 -0.121945485 0.13122408 0.056331355 0.165876 -0.021070836 -0.05571328
0.15912655 0.03409817 -0.06748461 0.030400736 0.022874909 -0.055357095 0.10081069 0.17434952
0.010220749 -0.003407441 0.061242647 0.0687386 0.11342647 0.12535688 -0.12761016 0.119139835
0.1578068 0.11880557 0.18366411 -0.15151246 0.092457525 -0.077975385 -0.034956347 0.01726537
-0.076269835 0.05196093 -0.16061465 -0.12633817 -0.09535445 -0.062542774 0.0965124 -0.05163761
-0.04248932 -0.079385355 -0.08418164 0.015158639 -0.051286627 -0.13424022 0.1264252 -0.08800188
0.09736007 -0.010625174 -0.17310126 -0.03651594 0.07516477 0.075370036 -0.14382142 0.16450255
0.03398911 0.096960306 -0.03843147 0.13075222 0.13366188 -0.16517116 -0.10351709 0.17962973
0.0420979 -0.07267222 0.032809224 -0.15506798 -0.07077103 0.07087813 -0.011468736 0.18709065
0.013396568 0.09532661 0.050077397 -0.04361433 0.005565421 -0.17833696 0.14050908 0.14135948
0.16523832 0.1309801 0.16281794 -0.1261337 0.1253334 0.09745304 -0.056617524 -0.112960175
0.11005789 0.13385272 -0.055813707 0.02846133 -0.025819764 -0.03749567 0.14255969 0.12895197
-0.09123192 0.012430845 -0.04538182 -0.05581832 0.060110003 -0.0020870666 -0.038542308 0.12016292
0.06872455 -0.11839265 -0.11033911 0.1697192 -0.19434345 -0.06034537 -0.07976982 -0.1269471
0.11777229 -0.017988143 0.16622907 -0.00031911052 0.06809898 0.07554243 -0.12794802 0.07042891
0.14705434 0.10772469 0.0012257802 0.1317388 -0.15184298 -0.09969848 0.11925576 0.029990816
-0.11567926 -0.1429982 0.15826975 -0.00788593 0.0285936 0.15222977 -0.13014126 -0.036795467
0.13625094 0.10657409 -0.11072269 0.1623567 0.075690135 0.11888731 -0.08260363 0.097566105
0.080429435 0.061441418 0.09927806 -0.037685588 -0.038566597 0.19361201 0.13938701 0.15126882
0.08865746 0.16103196 -0.024249109 0.14149886 -0.092272006 -0.07196883 0.15021335 -0.058556493
00000000: e8bf 40be ed1a d6bd 499e e7bd 0116 99bd
00000010: 4051 883c c53a b63d c309 e83d aae7 6bbd
00000020: 3251 1abd 3ab8 103d 585f ba3d 937f 2b3e
00000030: 555e 703d 4c79 33be 521c e43d 05a9 08be
00000040: a963 a03d 3cb1 ef3d 531a 053e 64ad a43d
00000050: 2baa e23d ac0a 1dbd 9b48 5cbd 7463 aa3d
00000060: 1533 c93c 4e19 29be 1f87 a93d 66af 12be
00000070: 55da e73d 3418 d53c 0dc5 46bd bea7 e9bb
00000080: 4fae f53d 03f0 293e 2e76 603e 82d2 acbc
00000090: 840f efbd 0e05 b83b b758 013d f1dc 95bd
000000a0: e935 d13d f0bd 68bd cb5a d53d ab7b 4f3e
000000b0: 9fd6 d03d 4312 ea3d 7e91 88bd ba30 003e
000000c0: cee2 eebc d499 123e f682 21be 857b 273e
000000d0: d8e8 353e 4c22 67be 6e24 ec3d f4a1 c03d
000000e0: 477d e63c bb5f b9bd a405 203e c6fc ff3d
000000f0: a781 713d 74e8 66bc 6e63 1cbe e1a5 8cbd
00000100: 72c8 9e3d 355e f73d c152 0abe 0cdb 453e
00000110: 8bf7 003d 243f a13c a376 1e3e 3e49 1a3e
00000120: ab80 cd3d 088e b0bd 3453 33be 55a5 213e
00000130: fb8f 71bd 240c 1cbd e2c6 a2bd b58c 2dbe
00000140: a27a eb3c b0f2 283e ec3a 0d3e 3a1c 83bd
00000150: 7ce7 3b3e d24b 06be 46a9 9abd b3c9 a93c
00000160: b740 39bd b8a9 98bd f781 4cbd 7f02 7a3c
00000170: 66b1 1c3d 7cec 883d 2b68 7f3d 2374 6cbe
00000180: 930b d13d 6cb7 763d 8ebe f9bd 9b5f 063e
00000190: b5bb 663d 66db 293e bf9c acbc 9c33 64bd
000001a0: 12f2 223e 86aa 0b3d 5f35 8abd f70a f93c
000001b0: 2964 bb3c 1fbe 62bd d675 ce3d ae88 323e
000001c0: ee74 273c 604f 5fbb 92d9 7a3d d3c6 8c3d
000001d0: 234c e83d 8e5d 003e 3dac 02be 96ff f33d
000001e0: 1b98 213e 5650 f33d 7212 3c3e 1526 1bbe
000001f0: 5f5a bd3d 8fb1 9fbd 632e 0fbd 1b70 8d3c
00000200: 5c33 9cbd fcd4 543d 2b78 24be cb5e 01be
00000210: 3249 c3bd 6d16 80bd 4ba8 c53d f581 53bd
00000220: 4809 2ebd ca94 a2bd 6c67 acbd f15b 783c
00000230: ed11 52bd 4576 09be 9c75 013e 543a b4bd
00000240: b764 c73d 3615 2ebc 7541 31be bd91 15bd
00000250: fdef 993d 9b5b 9a3d ec45 13be 5b73 283e
00000260: 2a38 0b3d 2093 c63d 516a 1dbd e9e3 053e
00000270: a9de 083e a122 29be c500 d4bd dbf0 373e
00000280: d96e 2c3d 2cd5 94bd f762 063d 24ca 1ebe
00000290: 67f0 90bd 8e28 913d 5ee7 3bbc b194 3f3e
000002a0: 477d 5b3c 993a c33d f51d 4d3d f1a4 32bd
000002b0: 235e b63b f79d 36be 9de1 0f3e 8ac0 103e
000002c0: 3c34 293e a61f 063e bfb9 263e 3129 01be
000002d0: 6657 003e 7695 c73d c7e7 67bd aa57 e7bd
000002e0: 0866 e13d b010 093e ea9c 64bd bc27 e93c
000002f0: f883 d3bc 0f95 19bd 2bfb 113e fc0b 043e
00000300: cdd7 babd beaa 4b3c 4ae2 39bd c0a1 64bd
00000310: e835 763d 2bc7 08bb 8ade 1dbd fa17 f63d
00000320: 75bf 8c3d d877 f2bd 79f9 e1bd dfca 2d3e
00000330: f801 47be b52c 77bd 5c5e a3bd 6cfe 01be
00000340: 9932 f13d df5b 93bc f437 2a3e 4a4e a7b9
00000350: 7a77 8b3d fdb5 9a3d ce04 03be 083d 903d
00000360: 6a95 163e c39e dc3d 5caa a03a 89e6 063e
00000370: ba7c 1bbe b72e ccbd 5d3c f43d 4daf f53c
00000380: 3fe9 ecbd 1f6e 12be 7711 223e fd33 01bc
00000390: 203d ea3c 1fe2 1b3e c043 05be d8b6 16bd
000003a0: 5e85 0b3e 8443 da3d 94c2 e2bd d640 263e
000003b0: 6e03 9b3d 317b f33d 182c a9bd bdd0 c73d
000003c0: 30b8 a43d ffa9 7b3d 4c52 cb3d 345c 1abd
000003d0: 02f8 1dbd 3a42 463e 78bb 0e3e 37e6 1a3e
000003e0: 0b92 b53d 90e5 243e 11a6 c6bc 14e5 103e
000003f0: 1bf9 bcbd 6564 93bd 87d1 193e efd8 6fbd

lightcurve_encoder.transformer.tblocks.0.ff.0.bias f4 [128]
-0.004602486 0.008140951 -0.05534913 0.09757375 0.18094419 0.089563265 0.13733369 -0.008953256
-0.11206063 0.10457613 -0.04597459 -0.09063989 0.05493445 0.113448896 0.13978988 -0.05182408
-0.13456206 0.15339223 0.06473293 -0.018212024 -0.017936958 -0.14777632 0.08491658 0.07366511
0.12719412 0.008807359 -0.0065319757 -0.16009831 0.15021536 -0.12684949 -0.104916744 0.018607104
0.052654743 -0.062325113 -0.12264809 -0.1222603 -0.028178247 -0.09090128 0.105348825 -0.0961438
0.17979676 0.09428005 -0.08420593 -0.01169032 0.064756885 0.08409416 0.16506974 -0.17693871
-0.055058647 0.16127013 -0.13705501 -0.0052546146 0.08397062 0.12608089 -0.11058096 -0.00077625614
0.052619264 -0.07259587 -0.012972737 -0.16725717 -0.09698122 0.05094971 -0.10674569 0.13210396
-0.0644487 0.10460557 -0.06328204 -0.08755582 -0.05979916 -0.08632675 0.058523264 0.05576948
0.14799249 0.16771466 -0.089610316 0.06863522 0.13003716 -0.09333729 0.11164813 -0.0357317
0.0022828951 -0.121736586 -0.008051131 0.1689589 -0.039241273 -0.057337523 0.020047283 0.10949281
0.17763911 0.12049555 -0.033988565 -0.052125093 0.1620831 -0.098777205 0.042903386 -0.15722714
0.033283215 0.17909148 -0.107557714 0.12418228 -0.081268325 -0.100365534 0.11059561 -0.061942276
0.121104494 -0.017873675 -0.16942549 -0.09119593 0.15176852 -0.012875235 0.05048736 0.12691186
-0.0737027 0.16391212 0.16033795 -0.019202014 -0.054266017 -0.08236379 0.036513057 -0.09068282
-0.113555305 -0.11993174 -0.017816722 -0.03516114 -0.16364813 -0.13206972 0.0649785 -0.16800661
00000000: 73d0 96bb a061 053c c5b5 62bd bfd4 c73d
00000010: 6f49 393e f26c b73d 34a1 0c3e adb0 12bc
00000020: 0b80 e5bd 032c d63d da4f 3cbd 68a1 b9bd
00000030: f202 613d e557 e83d 1425 0f3e 7d45 54bd
00000040: a3ca 09be da12 1d3e b392 843d 6231 95bc
00000050: 87f0 92bc ad52 17be bee8 ad3d bcdd 963d
00000060: 2d3f 023e be4c 103c 2f0a d6bb d0f0 23be
00000070: 0ed2 193e d5e4 01be 97de d6bd ed6d 983c
00000080: 80ac 573d 9e48 7fbd ec2e fbbd 9c63 fabd
00000090: 11d6 e6bc 732a babd 20c1 d73d 0ae7 c4bd
000000a0: a41c 383e e615 c13d 2974 acbd c288 3fbc
000000b0: 429f 843d 8f39 ac3d 0b08 293e 6c2f 35be
000000c0: 2d85 61bd ff23 253e 2658 0cbe e72e acbb
000000d0: caf8 ab3d 591b 013e 4578 e2bd ab7d 4bba
000000e0: 4c87 573d 25ad 94bd 9a8b 54bc 7745 2bbe
000000f0: 179e c6bd a5b0 503d 7c9d dabd 4346 073e
00000100: aefd 83bd 723b d63d 049a 81bd 7750 b3bd
00000110: f7ef 74bd 14cc b0bd 17b6 6f3d 8a6e 643d
00000120: 588b 173e 64bd 2b3e 9d85 b7bd 9f90 8c3d
00000130: 7628 053e 9f27 bfbd c6a7 e43d 675b 12bd
00000140: a09c 153b 0851 f9bd e4e8 03bc 9003 2d3e
00000150: 75bb 20bd c0da 6abd 333a a43c c43d e03d
00000160: 07e7 353e 5fc6 f63d 9837 0bbd 1f81 55bd
00000170: 1df9 253e b44b cabd 76bb 2f3d 2700 21be
00000180: fb53 083d c263 373e 3847 dcbd 4753 fe3d
00000190: 0270 a6bd 728c cdbd f47f e23d 2fb7 7dbd
000001a0: a205 f83d d06b 92bc e07d 2dbe efc4 babd
000001b0: 3569 1b3e a6f2 52bc d6cb 4e3d 2ff5 013e
000001c0: 71f1 96bd 94d8 273e a22f 243e 8b4d 9dbc
000001d0: 0b46 5ebd 59ae a8bd b78e 153d eab7 b9bd
000001e0: af8f e8bd c69e f5bd 60f4 91bc 2105 10bd
000001f0: 6093 27be 493d 07be 7313 853d ed09 2cbe

lightcurve_encoder.transformer.tblocks.0.ff.2.weight f4 [32, 128]
-0.020310048 0.08756501 0.05462595 -0.022598822 0.028558467 0.05032315 -0.040710654 -0.008615888
-0.007937125 0.08199846 0.0015173578 -0.054193486 0.0030007092 -0.007920394 0.041309025 -0.060108364
0.007670371 -0.05141671 0.031993937 0.06570264 -0.08242368 0.0629094 0.04740569 0.06325587
-0.09754188 -0.057555784 0.039336976 -0.014212688 0.0923957 -0.08089603 -0.013391378 0.034158193
-0.021339716 0.0006230354 -0.021585606 -0.06654795 -0.08909303 -0.053962387 0.06676274 0.029376652
0.079981275 -0.045035042 -0.0018174159 -0.044869173 -0.062361576 -0.04046808 0.052223187 -0.078939326
0.18703297 -0.050547913 -0.03111098 0.09426013 0.06569929 0.0047730315 0.09400023 -0.02438112
0.0817803 0.15868975 -0.051744346 -0.05523155 -0.080288015 0.0049797287 0.049367864 0.043085482
0.049108453 -0.08585068 -0.028111968 0.03041525 0.22851774 0.017216176 0.0697253 -0.002123949
0.039352 0.04270509 0.029717525 0.020236848 0.012451402 -0.02503228 -0.015018661 0.0386712
0.07109925 -0.023013579 0.03947294 0.045149077 -0.07431972 0.051746752 -0.075520046 0.02180938
0.07369251 -0.043906644 0.03152894 -0.0017867514 -0.083598584 -0.08887823 0.018604236 -0.018979553
-0.05619003 -0.07356333 0.07036253 0.026863474 -0.039437946 -0.08588546 0.05099512 0.066168115
0.023357099 0.020176357 0.0064262487 -0.044856597 -0.011126326 0.016669538 0.1026455 0.03710014
0.0009750766 0.0059330333 -0.06652504 0.07539807 -0.017662572 -0.117635585 0.10204677 -0.07673627
0.01441924 -0.006648203 -0.048238095 0.039425045 -0.030520441 -0.070696704 0.006927047 -0.10252676
-0.02881087 0.0008880014 0.106313445 0.0726596 -0.08758862 0.062438596 -0.02100169 -0.013503979
0.03978622 0.05992949 0.11030926 0.08518608 0.027352097 -0.058364354 0.07434303 0.0658794
-0.0034302536 0.06109721 0.06881944 0.019804081 0.017451169 -0.025434554 0.062168196 0.090082906
0.037200753 -0.00526962 -0.04793227 -0.0011011543 -0.056447614 -0.05229595 0.08801673 -0.012804696
-4.061881e-05 0.036301948 0.00049018266 -0.034281816 -0.084968284 0.1378275 0.06836322 -0.012797103
0.0067666736 -0.01630042 0.0461854 0.057724044 -0.03453364 -0.035217457 -0.023007933 -0.0132789
0.18143381 0.04041615 -0.015004621 -0.021685202 0.07343687 -0.014747511 -0.0140683055 -0.03615707
0.082654566 0.11130774 0.0030312722 -4.320853e-05 -0.052885856 -0.007647966 0.0069219517 0.11357897
0.023191052 0.0072398027 -0.101722226 0.047081247 0.026209997 -0.084168576 -0.032505594 0.020326193
0.079882145 -0.011743166 -0.035476577 0.107740454 -0.06805565 0.023731194 -0.038749557 0.027809735
0.024513902 -0.022699866 -0.072920784 0.035692256 0.023058794 -0.020414162 0.10885172 0.052314144
0.02325135 0.051977865 0.10867045 0.021729022 0.03112326 -0.0006650057 -0.012588702 -0.06855038
-0.06684121 0.04089802 0.06849737 -0.062149312 0.0802521 0.10517777 0.11043747 0.04192076
0.08670557 -0.09413359 -0.05422619 -0.02293366 0.0021272034 -0.063030384 0.07233828 0.025677262
-0.05600311 -0.0618908 0.005223679 0.11606122 -0.08270497 -0.021883516 0.07368384 0.027863333
-0.06018813 -0.070772454 -0.048922487 -0.00914007 -0.012823085 -0.06288017 -0.0050267936 -0.086143665
00000000: 4261 a6bc 4955 b33d 76bf 5f3d 2a21 b9bc
00000010: 72f3 e93c a61f 4e3d 37c0 26bd a729 0dbc
00000020: b70a 02bc cfee a73d 14e2 c63a fdf9 5dbd
00000030: 8ca7 443b 8ac4 01bc a733 293d 3034 76bd
00000040: bc57 fb3b 549a 52bd 130c 033d 1b8f 863d
00000050: bfcd a8bd a5d6 803d 782c 423d 4b8c 813d
00000060: 0ac4 c7bd 9dbf 6bbd cf1f 213d 56dc 68bc
00000070: f539 bd3d d1ac a5bd 8367 5bbc 76e9 0b3d
00000080: a1d0 aebc 3353 233a 4cd4 b0bc 4b4a 88bd
00000090: 6876 b6bd aa07 5dbd e7ba 883d 4ea7 f03c
000000a0: 39cd a33d aa76 38bd 5c36 eeba bdc8 37bd
000000b0: da6e 7fbd dcc1 25bd fbe7 553d f1aa a1bd
000000c0: 9285 3f3e 540b 4fbd 74dc febc 740b c13d
000000d0: 598d 863d 1767 9c3b 3183 c03d eaba c7bc
000000e0: 6e7c a73d 917f 223e e1f1 53bd 7a3a 62bd
000000f0: 0b6e a4bd fe2c a33b f535 4a3d 677a 303d
00000100: f225 493d 7bd2 afbd 124b e6bc 6729 f93c
00000110: 8e00 6a3e f008 8d3c 23cc 8e3d f331 0bbb
00000120: 902f 213d 88eb 2e3d 2b72 f33c bfc7 a53c
00000130: f700 4c3c 7f10 cdbc d410 76bc b165 1e3d
00000140: 7c9c 913d f986 bcbc 61ae 213d 3dee 383d
00000150: f034 98bd 67f4 533d 41aa 9abd 96a9 b23c
00000160: 19ec 963d 74d7 33bd 7d24 013d 6e31 eaba
00000170: bc35 abbd ca05 b6bd e967 983c 027b 9bbc
00000180: 8427 66bd 5fa8 96bd 3b1a 903d ca10 dc3c
00000190: af89 21bd b7e4 afbd 42e0 503d 2683 873d
000001a0: 6357 bf3c e348 a53c 4893 d23b 8dbb 37bd
000001b0: 324b 36bc 8e8e 883c ce37 d23d 51f6 173d
000001c0: 489c 7f3a e469 c23b 483e 88bd 4e6a 9a3d
000001d0: 19b1 90bc edea f0bd e6fd d03d e827 9dbd
000001e0: ad3e 6c3c 2bd9 d9bb 4f95 45bd 287c 213d
000001f0: 0106 fabc 6fc9 90bd 48fc e23b 8df9 d1bd
00000200: c604 ecbc c4c8 683a ddba d93d 8ece 943d
00000210: aa61 b3bd 9dbf 7f3d bc0b acbc cb3f 5dbc
00000220: e0f6 223d a078 753d d2e9 e13d 0a76 ae3d
00000230: 8111 e03c 760f 6fbd 2941 983d c7eb 863d
00000240: 1bce 60bb 1141 7a3d 35f1 8c3d 2b3c a23c
00000250: c1f5 8e3c 205c d0bc 14a4 7e3d 637d b83d
00000260: d15f 183d c7ac acbb a154 44bd 9b54 90ba
00000270: 9d35 67bd 4734 56bd 1e42 b43d caca 51bc
00000280: 1d5e 2ab8 5ab1 143d 9a7f 003a 176b 0cbd
00000290: da03 aebd a722 0d3e 0402 8c3d f1aa 51bc
000002a0: f9ba dd3b 7588 85bc e72c 3d3d 0c70 6c3d
000002b0: 2573 0dbd 2e40 10bd 227b bcbc be8f 59bc
000002c0: c9c9 393e 688b 253d f1d5 75bc 2aa5 b1bc
000002d0: 1266 963d 8b9f 71bc c07e 66bc 7019 14bd
000002e0: cc46 a93d 50f5 e33d 4fa8 463b ce3a 35b8
000002f0: d79e 58bd ca9b fabb 8ad1 e23b 179c e83d
00000300: 29fb bd3c de3b ed3b be53 d0bd 44d8 403d
00000310: 59b6 d63c 9360 acbd 9624 05bd 1e83 a63c
00000320: 4099 a33d 6866 40bc e34f 11bd 07a7 dc3d
00000330: c360 8bbd ec67 c23c dbb7 1ebd 3ed1 e33c
00000340: 61d1 c83c 12f5 b9bc 7e57 95bd 0b32 123d
00000350: cce5 bc3c 9a3b a7bc a7ed de3d 5b47 563d
00000360: 9d79 be3c bee6 543d 9d8e de3d 1001 b23c
00000370: 35f6 fe3c c753 2eba d840 4ebc 2464 8cbd
00000380: 0be4 88bd af84 273d 5948 8c3d 4790 7ebd
00000390: 375b a43d 7167 d73d 0a2d e23d 1ab5 2b3d
000003a0: b192 b13d 1dc9 c0bd 481c 5ebd 5fdf bbbc
000003b0: 8d68 0b3b 1316 81bd 1826 943d 1f59 d23c
000003c0: 8463 65bd 3581 7dbd 652b ab3b 81b1 ed3d
000003d0: 3961 a9bd 0f45 b3bc 8ee7 963d a541 e43c
000003e0: d487 76bd 26f1 90bd f262 48bd 3bc0 15bc
000003f0: eb17 52bc 52c7 80bd cdb7 a4bb 176c b0bd

lightcurve_encoder.transformer.tblocks.0.ff.2.bias f4 [32]
-0.030882085 0.08177784 -0.0027444118 0.028184306 -0.02908682 0.07170616 -0.050106164 -0.044641998
0.05318195 0.06426453 -0.021099111 -0.018922655 0.086298436 -0.014009513 -0.054418683 -0.061996616
-0.037448175 -0.006446001 -0.02600738 0.039729334 -0.09224852 -0.105153784 0.026606204 -0.036861695
-0.045182604 -0.107730865 0.03388137 -0.06437534 -0.03062215 -0.022613697 0.05150095 0.059970777
00000000: 6dfc fcbc 247b a73d 97db 33bb c6e2 e63c
00000010: 7c47 eebc aeda 923d 1f3c 4dbd 87da 36bd
00000020: 51d5 593d 1f9d 833d 0bd8 acbc af03 9bbc
00000030: 3cbd b03d 2888 65bc 20e6 5ebd 2af0 7dbd
00000040: 4263 19bd fa38 d3bb 6e0d d5bc 3abb 223d
00000050: cbec bcbd de5a d7bd 41f5 d93c 4afc 16bd
00000060: 6511 39bd 00a2 dcbd 31c7 0a3d 38d7 83bd
00000070: 4edb fabc 5c40 b9bc a9f2 523d eba3 753d
